…
om your input extrinsic shapes. This means:\n\nInput shapes with size-1 dimensions can expand to match shape.\nInput shapes must align from the right with shape.\nAxes in shape that exceed the input dimensions enumerate randomizations.\n\nNote that shape can contain size-1 dimensions\nthat expand to match input dimensions, as is illustrated in the last row of the following table.\nExamples:\n| Input extrinsic | Shape | Result |\n|---------------|----------|-----------------------------------------------------------------|\n| (10,) | (10,) | 10 configurations, 1 randomization each |\n| (10,) | (5, 10) | 10 configurations, 5 randomizations each |\n| (10,) | (2, 3, 10) | 10 configurations, 2×3=6 randomizations each |\n| (4, 1) | (4, 5) | 4 configurations, 5 randomizations each |\n| (4, 3) | (2, 4, 3) | 4×3=12 configurations, 2 randomizations each |\n| (4, 3) | (2, 1, 3) | 4×3=12 configurations, 2 randomizations each (the 1 expands to 4) |\nIndex into results\nWith randomization axes, you can index into specific randomization/parameter combinations:\n```python\nUsing shape=(2, 14, 10) with input extrinsic shape (10,), and\n1024 shots and 4 classical registers.\nresult = executor.run(program).result()\nmeas_data = result[0][\"meas\"] # shape (2, 14, 10, 1024, 4)\nGet 
…
